demo-openmv/trained.tflite (tflite, 21400 bytes, 3 tensors)

sequential/conv2d/Conv2D i1 [32, 3, 3, 1]
000000 a4 51 4c fb d6 9a 7f 0d ba 25 31 f7 7f f9 97 63
       -92 81 76 -5 -42 -102 127 13 -70 37 49 -9 127 -7 -105 99
000010 a9 18 02 99 ee 54 39 d6 d3 ae 7f 8a 7f eb 18 22
       -87 24 2 -103 -18 84 57 -42 -45 -82 127 -118 127 -21 24 34
000020 11 60 ba eb 0b 5d a8 25 38 2e 40 7f 78 50 1c 49
       17 96 -70 -21 11 93 -88 37 56 46 64 127 120 80 28 73
000030 7f 49 0e 18 e6 a9 a0 d9 a4 27 47 d8 fe 7f 06 e7
       127 73 14 24 -26 -87 -96 -39 -92 39 71 -40 -2 127 6 -25
000040 3d f9 3b e2 73 7f 79 50 3a ca cc 7f 04 3d 7b d2
       61 -7 59 -30 115 127 121 80 58 -54 -52 127 4 61 123 -46
000050 ee 1c 23 67 4a 36 57 5b 7f f2 81 84 b5 29 f7 0f
       -18 28 35 103 74 54 87 91 127 -14 -127 -124 -75 41 -9 15
000060 c6 e0 89 74 ae 30 7f 0d 65 12 45 d4 62 b5 3a 6b
       -58 -32 -119 116 -82 48 127 13 101 18 69 -44 98 -75 58 107
000070 95 fa 4c 81 c7 01 df 81 f8 77 31 c1 4d 09 b6 fb
       -107 -6 76 -127 -57 1 -33 -127 -8 119 49 -63 77 9 -74 -5
000080 7f d2 ea 24 9c bd 7a a0 99 30 7f 16 f2 62 72 bf
       127 -46 -22 36 -100 -67 122 -96 -103 48 127 22 -14 98 114 -65
000090 c2 29 04 ea db 14 af ce 7f 9c 43 5d db 7f a7 17
       -62 41 4 -22 -37 20 -81 -50 127 -100 67 93 -37 127 -89 23
0000a0 e0 9d a6 81 00 d2 e2 dc 0a 9e dc ed 11 3e 74 92
       -32 -99 -90 -127 0 -46 -30 -36 10 -98 -36 -19 17 62 116 -110
0000b0 7f d5 07 d4 8b 44 60 ef f9 2c 03 0a 81 23 e8 04
       127 -43 7 -44 -117 68 96 -17 -7 44 3 10 -127 35 -24 4
0000c0 e5 e7 55 7f 79 f2 a3 7f f7 21 0b 1a b9 a9 0a e5
       -27 -25 85 127 121 -14 -93 127 -9 33 11 26 -71 -87 10 -27
0000d0 e7 a4 07 6a 7f a0 94 c8 54 64 6a 81 c6 37 01 11
       -25 -92 7 106 127 -96 -108 -56 84 100 106 -127 -58 55 1 17
0000e0 4a cd b1 a5 7f 17 c7 42 f9 e7 78 72 7f cb 61 5b
       74 -51 -79 -91 127 23 -57 66 -7 -25 120 114 127 -53 97 91
0000f0 cd 37 57 7f 60 19 b3 c4 a3 db 07 04 56 35 7f cb
       -51 55 87 127 96 25 -77 -60 -93 -37 7 4 86 53 127 -53

sequential/conv2d_1/Conv2D i1 [16, 3, 3, 32]
000000 e1 d6 f5 48 d5 ad 48 cf 34 e4 bd e3 04 ac 54 d1
       -31 -42 -11 72 -43 -83 72 -49 52 -28 -67 -29 4 -84 84 -47
000010 75 f4 3e 33 52 38 78 08 46 19 c7 5a 39 ce d2 5f
       117 -12 62 51 82 56 120 8 70 25 -57 90 57 -50 -46 95
000020 21 fa 6c 01 d5 d1 db ac b4 14 ba 15 66 2b 3b 11
       33 -6 108 1 -43 -47 -37 -84 -76 20 -70 21 102 43 59 17
000030 48 29 bb 4d 50 b9 43 35 1f 26 ce 0e 38 c7 bf f0
       72 41 -69 77 80 -71 67 53 31 38 -50 14 56 -57 -65 -16
000040 ce f7 f4 13 e5 20 35 56 c0 3f 3e 32 cb 11 fa 2b
       -50 -9 -12 19 -27 32 53 86 -64 63 62 50 -53 17 -6 43
000050 54 e5 14 0d 37 3d f9 25 2f a3 28 db e7 df da 37
       84 -27 20 13 55 61 -7 37 47 -93 40 -37 -25 -33 -38 55
000060 52 c4 fd 4b 27 dd 41 ab c9 e8 c2 da c7 df 5e 38
       82 -60 -3 75 39 -35 65 -85 -55 -24 -62 -38 -57 -33 94 56
000070 2f 58 dc 2b 7f 3d 44 08 1f 3a f3 35 4b 35 1f c5
       47 88 -36 43 127 61 68 8 31 58 -13 53 75 53 31 -59
000080 2a a1 48 e0 08 07 67 09 02 42 f4 ce d6 15 5d 3c
       42 -95 72 -32 8 7 103 9 2 66 -12 -50 -42 21 93 60
000090 79 d4 f0 1e d5 28 45 ff c4 f8 b3 cc f1 da 11 01
       121 -44 -16 30 -43 40 69 -1 -60 -8 -77 -52 -15 -38 17 1
0000a0 3d 09 06 2e 31 37 28 c2 c6 3e 43 3d c9 ee 1c 4c
       61 9 6 46 49 55 40 -62 -58 62 67 61 -55 -18 28 76
0000b0 ee 20 2a 02 e3 f6 38 2e 2f 07 41 3f ed 15 07 3a
       -18 32 42 2 -29 -10 56 46 47 7 65 63 -19 21 7 58
0000c0 12 e4 f5 cf b9 39 52 2d ab dd 4e d6 c5 e2 f3 03
       18 -28 -11 -49 -71 57 82 45 -85 -35 78 -42 -59 -30 -13 3
0000d0 47 f3 2d 26 27 ef 2a 0f b3 14 ec 0f 39 e5 b8 d2
       71 -13 45 38 39 -17 42 15 -77 20 -20 15 57 -27 -72 -46
0000e0 11 bc ff e1 06 e1 57 47 c5 e3 47 53 34 d9 20 33
       17 -68 -1 -31 6 -31 87 71 -59 -29 71 83 52 -39 32 51
0000f0 36 1e 3d 2c 3b 0c 27 3f 39 d9 e6 39 f7 ca cf 26
       54 30 61 44 59 12 39 63 57 -39 -26 57 -9 -54 -49 38

sequential/y_pred/MatMul i1 [3, 4096] scale=0.0008703607 zero_point=0
000000 0a fb f2 37 32 1c 1a 28 ef f5 e8 1c 2b 2a 2c 02
       0.008703607 -0.0043518036 -0.01218505 0.04786984 0.043518037 0.0243701 0.022629378 0.03481443 -0.014796132 -0.009573968 -0.020888656 0.0243701 0.03742551 0.03655515 0.038295873 0.0017407214
000010 e1 0c f5 f1 19 22 0f 39 ef f7 03 be 11 06 d9 ce
       -0.026981182 0.010444328 -0.009573968 -0.01305541 0.021759018 0.029592264 0.01305541 0.04961056 -0.014796132 -0.007833246 0.002611082 -0.057443805 0.014796132 0.005222164 -0.033944067 -0.043518037
000020 15 36 14 ed e5 2d c9 26 1c dd 0e e9 14 c0 c3 fe
       0.018277574 0.046999477 0.017407214 -0.016536854 -0.023499738 0.03916623 -0.04786984 0.03307371 0.0243701 -0.030462625 0.01218505 -0.020018296 0.017407214 -0.055703085 -0.053092003 -0.0017407214
000030 fa f1 1f 0b f3 0f 01 39 e2 1a ea dd e1 bf f9 2a
       -0.005222164 -0.01305541 0.026981182 0.009573968 -0.011314689 0.01305541 0.0008703607 0.04961056 -0.02611082 0.022629378 -0.019147936 -0.030462625 -0.026981182 -0.056573447 -0.006092525 0.03655515
000040 1f 2c 05 08 36 1a 08 0c 0e 03 da 15 f5 d5 bb 33
       0.026981182 0.038295873 0.0043518036 0.0069628856 0.046999477 0.022629378 0.0069628856 0.010444328 0.01218505 0.002611082 -0.03307371 0.018277574 -0.009573968 -0.03742551 -0.060054887 0.044388395
000050 32 2e 26 fe 2b ea ff 1d 4d eb 0b 4e 32 17 05 23
       0.043518037 0.040036593 0.03307371 -0.0017407214 0.03742551 -0.019147936 -0.0008703607 0.02524046 0.06701777 -0.018277574 0.009573968 0.06788813 0.043518037 0.020018296 0.0043518036 0.030462625
000060 fd 14 25 35 0a e7 03 3d 1a f9 0f 06 2c 2b ec 3e
       -0.002611082 0.017407214 0.032203346 0.04612912 0.008703607 -0.021759018 0.002611082 0.053092003 0.022629378 -0.006092525 0.01305541 0.005222164 0.038295873 0.03742551 -0.017407214 0.053962365
000070 e1 f1 0c ec 3d fa 1e 31 f3 11 11 cc 05 09 fe e0
       -0.026981182 -0.01305541 0.010444328 -0.017407214 0.053092003 -0.005222164 0.02611082 0.042647675 -0.011314689 0.014796132 0.014796132 -0.045258757 0.0043518036 0.007833246 -0.0017407214 -0.027851542
000080 d8 23 e3 29 29 ea e8 2c f3 19 ff 17 27 c7 e7 15
       -0.03481443 0.030462625 -0.02524046 0.03568479 0.03568479 -0.019147936 -0.020888656 0.038295873 -0.011314689 0.021759018 -0.0008703607 0.020018296 0.033944067 -0.04961056 -0.021759018 0.018277574
000090 f0 39 d6 33 16 e6 dc 13 41 39 f1 1c e9 df dc 22
       -0.013925771 0.04961056 -0.03655515 0.044388395 0.019147936 -0.022629378 -0.031332985 0.016536854 0.056573447 0.04961056 -0.01305541 0.0243701 -0.020018296 -0.028721903 -0.031332985 0.029592264
0000a0 21 3e 21 ea 16 38 2f 38 0a 08 f9 3c 25 01 38 3e
       0.028721903 0.053962365 0.028721903 -0.019147936 0.019147936 0.0487402 0.040906955 0.0487402 0.008703607 0.0069628856 -0.006092525 0.05222164 0.032203346 0.0008703607 0.0487402 0.053962365
0000b0 f9 0b ec 26 40 1c 25 00 eb 03 14 f8 36 f2 11 08
       -0.006092525 0.009573968 -0.017407214 0.03307371 0.055703085 0.0243701 0.032203346 0.0 -0.018277574 0.002611082 0.017407214 -0.0069628856 0.046999477 -0.01218505 0.014796132 0.0069628856
0000c0 fc 00 25 fa e0 39 3c 45 f3 ef 36 cf f0 dd 05 3b
       -0.0034814428 0.0 0.032203346 -0.005222164 -0.027851542 0.04961056 0.05222164 0.060054887 -0.011314689 -0.014796132 0.046999477 -0.042647675 -0.013925771 -0.030462625 0.0043518036 0.051351283
0000d0 fa ee 1f 3b ee 12 3c 1b 1f 37 29 ca 1e dd 36 e9
       -0.005222164 -0.015666492 0.026981182 0.051351283 -0.015666492 0.015666492 0.05222164 0.023499738 0.026981182 0.04786984 0.03568479 -0.046999477 0.02611082 -0.030462625 0.046999477 -0.020018296
0000e0 e5 e8 2d 0b 19 1d f0 2e 05 12 2c 1f 2f 01 fe 12
       -0.023499738 -0.020888656 0.03916623 0.009573968 0.021759018 0.02524046 -0.013925771 0.040036593 0.0043518036 0.015666492 0.038295873 0.026981182 0.040906955 0.0008703607 -0.0017407214 0.015666492
0000f0 f7 d5 22 01 1b f5 e4 e0 12 0f e9 f7 f6 26 07 23
       -0.007833246 -0.03742551 0.029592264 0.0008703607 0.023499738 -0.009573968 -0.0243701 -0.027851542 0.015666492 0.01305541 -0.020018296 -0.007833246 -0.008703607 0.03307371 0.006092525 0.030462625
